00_simple/data.pth (torch, 3953 bytes, 6 tensors)

layer1.weight f4 [8, 13]
0.03132361 -0.22376823 0.15194646 0.02012086 -0.061618805 0.61536485 -0.20986459 -0.12296769
-0.19615704 -0.2296898 0.0339372 -0.03880693 -0.00029051065 0.66821045 0.122957885 -0.31149068
0.61162466 -0.48599914 -0.26873997 -0.34296772 0.49802005 0.062885515 0.19646892 -0.35166827
-0.2633349 0.48681867 -0.5121818 0.55632067 0.5453907 -0.55755156 0.19430634 0.5568991
0.6376168 -0.23512273 0.49390203 -0.35727304 -0.08510541 -0.011468742 0.14764342 0.39401346
0.32149893 0.14450322 0.32381153 0.5012559 0.18992613 0.3868781 0.55082405 0.39919627
0.48413563 -0.5074173 -0.35302097 0.18627827 0.073457785 -0.14982906 -0.22507262 0.022621939
-0.2792818 -0.37629768 -0.37525934 -0.15499952 -0.14727953 -0.09905338 0.7168369 0.41394213
0.5153266 -0.25731328 0.24308027 0.25952154 -0.23249824 0.11193797 0.13175969 0.28053346
-0.13528939 0.51931083 0.084536165 -0.27876776 -0.15544175 -0.12150818 -0.41576064 -0.27006662
-0.11990947 -0.41657627 -0.31233847 -0.41531518 -0.30811718 -0.36599502 -0.28717884 -0.17899923
0.3229984 0.6350972 0.33979028 -0.26315585 0.101565085 0.29450184 -0.1772625 0.38607168
-0.23670687 0.29476875 0.18138844 0.47351208 -0.17368558 -0.2005091 -0.12642427 -0.13642876
00000000: 304d 003d 8023 65be da97 1b3e 80d4 a43c
00000010: 0064 7cbd 8d88 1d3f bee6 56be 7cd6 fbbd
00000020: 64dd 48be ce33 6bbe bc01 0b3d 04f4 1ebd
00000030: ae4f 98b9 d70f 2b3f 58d1 fb3d b57b 9fbe
00000040: 6f93 1c3f e1d4 f8be 4998 89be 7799 afbe
00000050: 7cfc fe3e 1fca 803d 262f 493e dd0d b4be
00000060: d5d3 86be 4c40 f93e 591e 03bf 086b 0e3f
00000070: ba9e 0b3f b3bb 0ebf 3ef8 463e f090 0e3f
00000080: db3a 233f 03c4 70be bae0 fc3e 7eec b6be
00000090: bf4b aebd 64e7 3bbc d62f 173e 22bc c93e
000000a0: 829b a43e a7f8 133e a0ca a53e 4f52 003f
000000b0: ff7b 423e e314 c63e ce02 0d3f 7463 cc3e
000000c0: a0e0 f73e 1ae6 01bf 2abf b4be bbbf 3e3e
000000d0: 0971 963d ca6c 19be 7079 66be a551 b93c
000000e0: 06fe 8ebe 17aa c0be fe21 c0be 32b8 1ebe
000000f0: 72d0 16be 80dc cabd a082 373f 39f0 d33e
00000100: 72ec 033f 91be 83be 09ea 783e 02e0 843e
00000110: 0514 6ebe bc3f e53d 03ec 063e 15a2 8f3e
00000120: 4d89 0abe 8ef1 043f 4c21 ad3d a6ba 8ebe
00000130: 1f2c 1fbe 48d9 f8bd 94de d4be 2c46 8abe
00000140: 1993 f5bd 7c49 d5be d4ea 9fbe 31a4 d4be
00000150: 89c1 9dbe b363 bbbe 1b09 93be 934b 37be
00000160: 0c60 a53e bb95 223f fef8 ad3e 5dbc 86be
00000170: 5b01 d03d f2c8 963e 4d84 35be 30ab c53e
00000180: 4963 72be eeeb 963e e4bd 393e 2d70 f23e
00000190: a2da 31be 4252 4dbe 5d75 01be fbb3 0bbe

layer1.bias f4 [8]
-0.033954468 0.540493 0.6150621 0.35479912 0.37512386 0.3240021 0.41516295 0.12712777
00000000: d713 0bbd c05d 0a3f b674 1d3f 3ba8 b53e
00000010: 3c10 c03e 9ae3 a53e 3d90 d43e c82d 023e

layer2.weight f4 [8, 8]
0.6159654 -0.026617257 0.28057495 0.054739103 -0.601414 0.45463568 -0.29406437 0.29240844
0.16618143 0.6808958 0.261711 0.64254385 -0.13056478 0.5972235 -0.6282963 0.32867184
0.5971955 -0.016050627 0.67179793 0.018456327 -0.2364953 0.7999022 -0.34713182 0.73636514
-0.41674158 0.6515337 0.17270939 -0.39249477 0.7906805 -0.2734531 0.72202504 -0.6075843
0.28969914 -0.1416014 0.64134467 -0.18847688 0.2012757 0.7204735 0.41033614 0.67012066
0.17537531 -0.013187134 -0.34833166 0.17268296 -0.055897295 -0.062879354 0.08075326 0.22108468
0.5204406 -0.54431313 0.6797338 0.42462158 -0.21538538 0.25462547 -0.5012125 0.7922387
-0.13215837 -0.34047547 0.42766717 -0.54584527 0.7958641 0.051023643 0.77731365 -0.52387923
00000000: e9af 1d3f 6f0c dabc 85a7 8f3e 1c36 603d
00000010: 45f6 19bf 02c6 e83e 9b8f 96be 8fb6 953e
00000020: 772b 2a3e 304f 2e3f fcfe 853e c17d 243f
00000030: c6b2 05be a4e3 183f 07d8 20bf ad47 a83e
00000040: cee1 183f 9b7c 83bc f3fa 2b3f b931 973c
00000050: d32b 72be 64c6 4c3f 43bb b1be 6d82 3c3f
00000060: 275f d5be eaca 263f bbda 303e 13f5 c8be
00000070: 0a6a 4a3f 0b02 8cbe a2d6 383f a58a 1bbf
00000080: 7253 943e f5ff 10be 2a2f 243f 1500 41be
00000090: 381b 4e3e f470 383f 9417 d23e 078d 2b3f
000000a0: 9695 333e d90e 58bc 8758 b2be cdd3 303e
000000b0: 90f4 64bd e4c6 80bd f761 a53d 0664 623e
000000c0: 983b 053f 1b58 0bbf 0903 2e3f 0068 d93e
000000d0: fc8d 5cbe 455e 823e 764f 00bf 28d0 4a3f
000000e0: 8654 07be cd52 aebe 31f7 da3e 84bc 0bbf
000000f0: c0bd 4b3f 2bfe 503d 07fe 463f f31c 06bf

layer2.bias f4 [8]
0.1743857 0.3153282 -0.011320238 0.44622776 0.10723721 -0.20495272 0.35187495 0.4158651
00000000: 2a92 323e b372 a13e 8578 39bc f777 e43e
00000010: 2f9f db3d 20df 51be f428 b43e 45ec d43e

layer3.weight f4 [3, 8]
-0.18835418 0.7485753 -0.4677342 0.005926585 -0.76650363 -0.23133284 -0.2707574 -0.65124834
0.3865306 0.14132178 0.4519661 -0.5881236 0.43415704 0.19069615 0.61908126 -0.51793766
-0.15102682 -0.94054776 -0.71660924 0.34627602 0.38718972 -0.24246176 -0.049855985 0.33625066
00000000: ebdf 40be a2a2 3f3f db7a efbe cc33 c23b
00000010: 9539 44bf 84e2 6cbe b7a0 8abe 36b8 26bf
00000020: 57e7 c53e a8b6 103e 1a68 e73e 458f 16bf
00000030: d549 de3e da45 433e 1c7c 1e3f 9097 04bf
00000040: c6a6 1abe bdc7 70bf b473 37bf 174b b13e
00000050: bb3d c63e e547 78be ca35 4cbd 0c29 ac3e

layer3.bias f4 [3]
0.34047148 0.14421533 -0.015821846
00000000: 4752 ae3e 2fad 133e d19c 81bc
